Zuko_2D_samples.pt (torch, 143816 bytes, 26 tensors)

weight f4 [64, 27]
0	0x3deb4712	0.11488165
1	0xbe4396f0	-0.19100547
2	0x4145dfc3	12.367129
3	0x40efa344	7.48868
4	0x405189cc	3.2740355
5	0xbf45183a	-0.7699009
6	0xbf2214ff	-0.6331329
7	0xc0b945c9	-5.7897687
8	0xc0b269f0	-5.575432
9	0xc0a42a21	-5.1301427
10	0xc0b76c20	-5.731949
11	0xbff11aa8	-1.883626
12	0xc0c246b3	-6.0711303
13	0xc04cd526	-3.2005095
14	0xc03c1eeb	-2.939387
15	0xc06d0052	-3.7031446
16	0xc01df7e8	-2.468256
17	0xc02cc588	-2.6995564
18	0x3e28b533	0.16475372
19	0x3fc28bef	1.5198954
20	0x3fdc9ab3	1.723471
21	0x4076a2a4	3.8536768
22	0x40856aea	4.169301
23	0x40d33845	6.600619
24	0x41006b7c	8.026241
25	0x408f9d1f	4.48793
26	0x404edb78	3.2321453
27	0xbe4b5d16	-0.19859728
28	0xbe3a1747	-0.18172942
29	0xbfc151a3	-1.5103039
30	0xbef093b2	-0.46987683
31	0xbbd784b5	-0.006577099
32	0xbd9e8da2	-0.07741858
33	0xbe3b7810	-0.18307519
34	0xbe7ca465	-0.24672087
35	0x3ee286d2	0.44243485
36	0x3ecfd05a	0.40588647
37	0x3ef52060	0.47876263
38	0x3dd56a97	0.10420721
39	0x3e2a246e	0.1661546
40	0x3ec362df	0.3816137
41	0x3da57025	0.080780305
42	0x3f15c5bc	0.58504844
43	0x3f027616	0.50961435
44	0xbdcc1053	-0.09964051
45	0xbe216bb2	-0.15763739
46	0xbe4d554f	-0.20052074
47	0xbe86e9bd	-0.26350203
48	0xbf280f0d	-0.65647966
49	0xbee0be24	-0.43895066
50	0xbf1e8dc4	-0.6193507
51	0xbf5bb6b3	-0.8582565
52	0xbdb34771	-0.08753861
53	0xbf60c6c7	-0.8780331
54	0xbd760223	-0.06006063
55	0xbe1ba262	-0.15198663
56	0xbd7cb413	-0.06169517
57	0xbda82229	-0.082096405
58	0x3dbe7572	0.09299745
59	0x3e18b2b1	0.14911915
60	0xbc9f797f	-0.019467114
61	0xbb082c69	-0.0020778424
62	0x3cdf58e0	0.027264059
63	0x3d9fbe65	0.07799987
64	0xbdecf94c	-0.11570987
65	0xbce75051	-0.02823654
66	0xbdea4de8	-0.11440641
67	0x3e3b41e4	0.18286854
68	0xbe0ce4e3	-0.13759188
69	0xbc9741c7	-0.018463982
70	0x3e439b68	0.19102252
71	0x3dd41acb	0.10356673
72	0x3e102bc1	0.14079191
73	0xbd2ab15b	-0.041673046
74	0x3cbdec7f	0.02318406
75	0xbcf53ea8	-0.029937103
76	0x3e1fa130	0.15588832
77	0xbdff84f8	-0.12476534
78	0x3c591db4	0.013251711
79	0xbe280c0c	-0.16410846
80	0x3c31819b	0.010834123
81	0xbd50f4bb	-0.051014643
82	0xbc122247	-0.008919305
83	0x3df25ae7	0.118337445
84	0x3b73c254	0.0037194686
85	0xbe2bfe6f	-0.16796277
86	0xbc489a27	-0.012243784
87	0xbe2898c5	-0.16464527
88	0xbe23e5a2	-0.16005567
89	0xbd98ad19	-0.07454891
90	0xbb425646	-0.0029653474
91	0xbccac48e	-0.024751928
92	0xbcd15a39	-0.025555717
93	0x3d8ceb00	0.0688076
94	0x3db9e820	0.090774775
95	0xbdd19383	-0.10233214
96	0x3dea6acc	0.11446151
97	0x3c8e827a	0.0173962
98	0x3d4e1137	0.050309386
99	0x3d22936d	0.039691377
100	0x3e3a5e99	0.18200149
101	0x3e23f11e	0.16009948
102	0xbe30a68c	-0.17251033
103	0xbdce38ec	-0.10069451
104	0xbe16f5a3	-0.1474214
105	0x3d4f5c5a	0.050625183
106	0x3d44fa66	0.04809036
107	0x3e39f8e3	0.18161349
108	0x3e2f645b	0.17128126
109	0x3dc6ee8d	0.09713469
110	0xbf3e38cc	-0.74305415
111	0xbe1633ee	-0.14668247
112	0x3d32d17b	0.043656807
113	0xbe2a2eae	-0.1661937
114	0xbe3b6a61	-0.18302299
115	0xbc90f06b	-0.017692765
116	0x3eb6817f	0.35645673
117	0x3e669ad0	0.22519994
118	0x3e2176fc	0.15768045
119	0x3daa3960	0.08311725
120	0x3eaa581c	0.33270347
121	0x3ed11f09	0.4084399
122	0x3e5c7083	0.21527295
123	0x3ea77763	0.32708272
124	0x3e65ded9	0.22448291
125	0xbd0b0c2c	-0.033947155
126	0xbd49f9c5	-0.049310464
127	0xbc8aab65	-0.01692743
128	0xbe997527	-0.29972193
129	0xbe40d7e1	-0.18832351
130	0xbe9ebcc5	-0.31003395
131	0xbe97ec24	-0.29672348
132	0xbf1e6528	-0.618731
133	0xbf360b57	-0.71111053
134	0xbeec3bbf	-0.46139333
135	0xbb05abf0	-0.0020396672
136	0xbd87dcc9	-0.06633908
137	0xbe3a8a41	-0.18216802
138	0xbd189e04	-0.03726007
139	0x3c9af97d	0.018917793
140	0x3cf965cd	0.03044405
141	0xbdacd2c3	-0.08438637
142	0x3d75181e	0.059837453
143	0x3d56552e	0.052327327
144	0x3deb77e1	0.114974745
145	0x3c0ccfd4	0.008594472
146	0xbdfd323a	-0.123630956
147	0xbd097f75	-0.033568818
148	0xbe41d865	-0.18930204
149	0x3e287967	0.16452561
150	0xbdabd9af	-0.08391129
151	0xbb3dfb38	-0.002898885
152	0x3e3bc5a6	0.18337116
153	0x3de738cd	0.11290131
154	0x3dd55885	0.104172744
155	0xbc3ee446	-0.011651104
156	0x3bf78463	0.0075536235
157	0xbcba914d	-0.022774363
158	0x3e0d86e7	0.13820992
159	0xbe35f786	-0.17770204
160	0x3da0a14b	0.07843264
161	0xbd24c98b	-0.04023127
162	0x3ce733c9	0.028222935
163	0x3e350751	0.17678572
164	0xc1d0b991	-26.090609
165	0x402bfba0	2.687233
166	0x40d1f3b1	6.5609975
167	0xc12f0a14	-10.9399605
168	0xbf14e88b	-0.5816733
169	0xbfdd455b	-1.7286791
170	0x410065af	8.024825
171	0x40dafc3a	6.8432894
172	0xbf565648	-0.83725405
173	0x408f8dd4	4.486063
174	0x404cf5a8	3.2024937
175	0x41846a9d	16.552057
176	0x4121c20d	10.109876
177	0xc1ef6a14	-29.926796
178	0x4089a1a6	4.3009825
179	0xbfb042ac	-1.3770347
180	0xc03d5cde	-2.9587932
181	0x418e5d3f	17.79553
182	0xc008deea	-2.1386056
183	0x409d97f0	4.924797
184	0x408ddfb5	4.433558
185	0x410ec9c4	8.924259
186	0xc0243c5a	-2.5661836
187	0x415b043f	13.688537
188	0xc0d8b8e5	-6.77257
189	0xbd33e8e3	-0.04392327
190	0xbddf5684	-0.109051734
191	0xbe269f0e	-0.16271612
192	0x3d98bbc5	0.07457689
193	0xbe1094e1	-0.14119293
194	0x3e0cb58b	0.13741128
195	0x3dc949dc	0.09828541
196	0xbe0d5a42	-0.13803962
197	0x3e30f58d	0.1728117
198	0x3e314bcf	0.17314075
199	0x3d76329c	0.06010686
200	0x3e57d112	0.21075848
201	0xbe11e1f8	-0.14246356
202	0xbd1a641d	-0.03769313
203	0xbe1f5c1d	-0.15562482
204	0x3e352639	0.17690362
205	0x3bbaba15	0.0056984522
206	0x3da3d6e0	0.079999685
207	0xbe312e54	-0.17302829
208	0x3d58b6e6	0.0529088
209	0xbe3f9b67	-0.18711625
210	0xbc680ca1	-0.014163167
211	0x3d4f02e3	0.050539862
212	0xbd691a6c	-0.056909963
213	0xbdf27bd7	-0.11840027
214	0x3d55ada9	0.05216757
215	0x3e0f06e2	0.1396747
216	0x3c86d185	0.016457329
217	0xbe34251c	-0.17592281
218	0xbd8c13b3	-0.06839695
219	0x3db46f4f	0.08810293
220	0x3d8ab9b7	0.067737035
221	0xbdde56c9	-0.10856397
222	0xbe1ac20b	-0.15113084
223	0x3d89da9e	0.06731151
224	0x3d708cf0	0.05872816
225	0xbe66936a	-0.22517172
226	0x3e014a45	0.12625988
227	0x3cd42fdd	0.02590173
228	0xbe6abdc5	-0.22923954
229	0xbd230292	-0.039797373
230	0xbddba7e6	-0.107253835
231	0xbe4dc1ca	-0.20093456
232	0x3d540424	0.05176176
233	0x3cd1f61f	0.025630055
234	0x3df5d1bc	0.12002894
235	0xbde3e854	-0.111282974
236	0xbdc676e6	-0.09690647
237	0xbe1b75f9	-0.15181722
238	0xbe69d9a9	-0.22836937
239	0xbe584b13	-0.21122389
240	0x3d60f700	0.054923058
241	0xbe5d60de	-0.21618983
242	0xbe24cd6a	-0.16093984
243	0xbe98f7df	-0.2987661
244	0x3d3e952d	0.046528984
245	0xbf8ee443	-1.116341
246	0xbcad1702	-0.021129135
247	0x3dc01227	0.09378462
248	0x3e268672	0.16262224
249	0xbdc885bb	-0.09791132
250	0x3e6b917b	0.23004715
251	0x3e8db6ee	0.27678627
252	0x3f16f78c	0.58971477
253	0x3ec14aac	0.37752283
254	0x3e3febf6	0.18742356
255	0x3e413fe2	0.18872026

bias f4 [64]
0	0xbe80a92e	-0.25129074
1	0xbd11517b	-0.035478096
2	0xbd9fef47	-0.078093104
3	0xbca67d7d	-0.02032351
4	0xba79faff	-0.00095359975
5	0xbe0802ac	-0.13282269
6	0x3f2e5012	0.6809093
7	0xbea3bdda	-0.31980783
8	0xbd8516ac	-0.06498465
9	0xbd7207c0	-0.059089422
10	0xba7ee548	-0.00097234966
11	0xbd23a88f	-0.039955672
12	0xbb6add79	-0.0035837574
13	0xbe01992e	-0.1265609
14	0xbd987229	-0.07443649
15	0xbd86f17a	-0.06589027
16	0xbd3c75f1	-0.046010915
17	0xbd594fea	-0.053054728
18	0xbe19d781	-0.15023614
19	0xbe28c0f8	-0.16479862
20	0x3eeb3e4d	0.4594597
21	0xbe2dcc37	-0.16972433
22	0xbbac36db	-0.0052555627
23	0xbba522e4	-0.0050395597
24	0xbd95a035	-0.07305948
25	0xbf1300cc	-0.5742309
26	0xbe475734	-0.19466859
27	0xbdc4d217	-0.09610384
28	0xbd6b18f1	-0.057396833
29	0xbbd8aea5	-0.006612616
30	0xbdc26ccb	-0.09493407
31	0xbe64e5cc	-0.22353286
32	0x3f007603	0.5018007
33	0xbe3ce952	-0.1844838
34	0xbdff5c5c	-0.12468788
35	0xbdfa31ed	-0.12216554
36	0xbd4cd59f	-0.050008412
37	0xbdeda0fb	-0.1160297
38	0xbdc6f63b	-0.097149335
39	0xbe08464d	-0.13308068
40	0xbaa227f5	-0.0012371527
41	0x3e26b349	0.1627933
42	0xba2122b0	-0.00061468314
43	0xbc9eb93b	-0.019375434
44	0xbb1d4bae	-0.0024001407
45	0xbebf5882	-0.37372214
46	0xba4c9ebb	-0.0007805635
47	0xbde14f1e	-0.110014185
48	0xbe733fad	-0.23754759
49	0x3f122a7d	0.5709608
50	0xbe07f26f	-0.13276075
51	0xbcb5152b	-0.02210482
52	0xbd1bde06	-0.038053535
53	0x3fd7a3cc	1.6846862
54	0xbb201936	-0.002442909
55	0xbdff9eba	-0.124814466
56	0xbb08960b	-0.0020841386
57	0xbd1355c4	-0.035970464
58	0xbb11badf	-0.0022236628
59	0xbe0a0e6b	-0.13482063
60	0xba2b8b1e	-0.00065438624
61	0xbd4db5d5	-0.050222237
62	0xbb65074e	-0.003494698
63	0xbe0f1c1a	-0.13975564

weight f4 [64, 64]
0	0xbf5e1ded	-0.86764413
1	0x3df8eb2c	0.121542305
2	0x3d4849ec	0.048898622
3	0xbc84df70	-0.016219825
4	0xbe2dfd8a	-0.16991249
5	0x3af50380	0.001869306
6	0xbf26e310	-0.6519022
7	0x3cd54f88	0.0260389
8	0xbc750d4f	-0.014956786
9	0xbdb2efc6	-0.087371394
10	0x3d6072cf	0.05479699
11	0xba1d8700	-0.0006009191
12	0xbea66bea	-0.32504207
13	0xbcae6b48	-0.02129139
14	0xbdbdfc6e	-0.09276663
15	0xbcae2540	-0.021257997
16	0xbe4261ca	-0.18982616
17	0xbdce568a	-0.100751
18	0x3d98a210	0.07452786
19	0xbdf36062	-0.11883618
20	0xbf6a1d3c	-0.9145086
21	0xbd7a37b8	-0.061088294
22	0xbe33d857	-0.17562996
23	0x3a2bc500	0.00065524876
24	0xbe2c8ddd	-0.16850992
25	0xbda2eca0	-0.07955289
26	0x3c478ff8	0.012180321
27	0xbda273de	-0.07932256
28	0xbde4f238	-0.11179012
29	0xbda6ca42	-0.08144046
30	0xbe13c39c	-0.14430088
31	0xbd8fdc28	-0.07024413
32	0xbef6d3a6	-0.4820835
33	0xbdd5dec0	-0.10442877
34	0xbcb4b2a8	-0.022057846
35	0x3dbb8298	0.09155768
36	0x3c13ad60	0.009013504
37	0x3b31e980	0.0027147233
38	0xbe1e9dbd	-0.1548986
39	0x3d809362	0.06278111
40	0xbd4e0928	-0.0503017
41	0x3ddc5d24	0.10759953
42	0xbe710421	-0.23536731
43	0xbc9e07f0	-0.019290894
44	0xbc12a2fb	-0.00894999
45	0xbdd7f054	-0.10543886
46	0xbd340c71	-0.043957178
47	0xbd921a34	-0.07133904
48	0xbd8c3cbe	-0.06847523
49	0xbdb82fa6	-0.08993463
50	0x3dd95ce4	0.106134206
51	0x3da40fee	0.08010851
52	0xbd0b26d4	-0.033972576
53	0x3c895918	0.016766116
54	0x3dc78fdf	0.09744238
55	0xbbc7ce40	-0.006097585
56	0xbe789182	-0.24274257
57	0xbcfdc348	-0.030976906
58	0xbe042a67	-0.129068
59	0x3d91605c	0.07098457
60	0xbeb527de	-0.3538198
61	0x3df5584e	0.119797334
62	0xbe32c065	-0.17456205
63	0xbd164850	-0.036690056
64	0xbde7890c	-0.113054365
65	0xbcff0ad8	-0.0311331
66	0x3c6e5150	0.014545754
67	0xbdccbd1a	-0.09997006
68	0x3d68f560	0.056874633
69	0xbd5ad774	-0.05342813
70	0x3de83d76	0.11339848
71	0xbd79b3fc	-0.060962662
72	0xbb961380	-0.0045799613
73	0xbd34e984	-0.04416801
74	0xbdd7e52e	-0.105417594
75	0x3d712118	0.05886945
76	0xbd00e174	-0.03146501
77	0xbd70f090	-0.05882317
78	0xbc36c9e0	-0.011156529
79	0x3de4255e	0.1113994
80	0xbdd014f0	-0.101602435
81	0x3dd8cfa2	0.10586478
82	0xbdec38dc	-0.115342826
83	0x3d04a6e4	0.03238572
84	0x3d74b324	0.059741154
85	0x3d3720dc	0.04470907
86	0xbd12e5f8	-0.035863847
87	0xbd3b782c	-0.0457689
88	0xbdb869f8	-0.09004587
89	0xbd2d0dcc	-0.042249486
90	0xbd1f4318	-0.038882345
91	0xbcde7100	-0.027153492
92	0xbdecd308	-0.115636885
93	0x3be131e0	0.0068724006
94	0xbd62a968	-0.05533734
95	0xba94d480	-0.0011354834
96	0x3ce74f10	0.028235942
97	0x3db8f8c8	0.09031826
98	0xbdce7bf8	-0.10082239
99	0xbdfd4a98	-0.12367743
100	0x3dff3246	0.12460761
101	0xbd3b0030	-0.045654476
102	0xbcc3e450	-0.023912579
103	0xbd2b5b64	-0.041835204
104	0xbc669560	-0.0140737
105	0x3ca30fa8	0.019904926
106	0xbd9bf458	-0.07614964
107	0x3d8a80a0	0.067628145
108	0xbccd5598	-0.025065228
109	0x3c8b9708	0.01703979
110	0x3dc06d26	0.093958184
111	0xbdbf9e2a	-0.09356339
112	0xbc9fcae8	-0.019505933
113	0xbdcf1e80	-0.10113239
114	0xbd370298	-0.044680208
115	0xbd658c0c	-0.056041762
116	0x3d508920	0.050912023
117	0xbda03e84	-0.07824424
118	0xbc49f100	-0.012325525
119	0xbdcdfa5c	-0.10057518
120	0xbd6dd88c	-0.058067843
121	0xbd63d628	-0.055624157
122	0x3cabfa80	0.020993471
123	0x3def1996	0.11674802
124	0xbc592970	-0.013254508
125	0x3d60d634	0.05489178
126	0xbd8cfe6e	-0.06884466
127	0x3da06a8a	0.07832821
128	0xbe9df9d1	-0.30854657
129	0xbdec4ca6	-0.11538057
130	0x3d99bf0c	0.075071424
131	0x3df4d440	0.11954546
132	0xbc91d59e	-0.017802056
133	0xbdb2bcd8	-0.08727425
134	0xbe1eda82	-0.15513042
135	0x3d211664	0.039327994
136	0xbdbb0fbe	-0.09133862
137	0xbaa28100	-0.0012398064
138	0x3d1fa4b0	0.038975418
139	0xbba936e0	-0.0051640123
140	0xbe0dc4ff	-0.1384468
141	0x3de3d8f2	0.111253634
142	0x3d89f256	0.06735675
143	0x3d34fa90	0.044184268
144	0xbdb5cc6e	-0.088768825
145	0x3cb213a0	0.021737874
146	0xbdd8d944	-0.10588315
147	0x3d158cec	0.036511347
148	0x3bae0c48	0.0053115226
149	0xbd02c258	-0.031923622
150	0xbc6d8065	-0.014495944
151	0xbd9654f8	-0.07340425
152	0xbe2ae8ce	-0.1669037
153	0xbcfe0480	-0.031008005
154	0xbca698b1	-0.02033648
155	0xbdb10878	-0.086441934
156	0xbc0beb80	-0.008540034
157	0x3d852040	0.06500292
158	0xbddcb7d1	-0.10777248
159	0xbd0a2f8c	-0.03373675
160	0x3b204d19	0.0024460016
161	0xbb9aad80	-0.00472039
162	0xbd6c4574	-0.057683423
163	0x3d795078	0.060867757
164	0xbc893418	-0.016748473
165	0xbddebbd4	-0.10875669
166	0xbdb68e95	-0.08913914
167	0xbd7064f0	-0.05869001
168	0xbddf9e26	-0.10918836
169	0x3c848f88	0.016181722
170	0xbd551355	-0.05202039
171	0xbc81a4c0	-0.01582563
172	0xbdb7cba3	-0.089743875
173	0x3d4dd410	0.050251067
174	0xbdbbdf4b	-0.09173449
175	0x3d59e820	0.053199887
176	0xbcab5f88	-0.020919576
177	0x3de4931a	0.1116087
178	0x3da09ad6	0.078420326
179	0xbcf68458	-0.030092403
180	0x3d9ad742	0.075605884
181	0xbd8f2da0	-0.06991124
182	0xbe12b23b	-0.14325802
183	0xbdae1542	-0.08500148
184	0xbe1246a1	-0.14284755
185	0xbd220494	-0.039555147
186	0x3d1be083	0.038055908
187	0xbd01f0ec	-0.0317239
188	0xbceaa68f	-0.028643874
189	0xbdfea1be	-0.124331936
190	0xbde01fe6	-0.10943584
191	0xbd6e0c3c	-0.058117136
192	0xc00230f2	-2.0342374
193	0x3ea06ba7	0.31332132
194	0x3db47356	0.08811061
195	0x3dd395d4	0.10331312
196	0x3e8118a3	0.2521411
197	0x3dffb314	0.12485328
198	0x3fd220aa	1.6416218
199	0x3e61a90b	0.22037141
200	0xbdf05f30	-0.117369056
201	0x3d43ec48	0.047832757
202	0x3ea3e195	0.32008043
203	0x3edb076a	0.42779094
204	0x3ec92307	0.39284536
205	0x3ebc7228	0.36805844
206	0xbdfc2856	-0.12312381
207	0xbdd0bdfe	-0.10192488
208	0x3e62852b	0.22121112
209	0x3d8ff416	0.070289776
210	0x3df0a53e	0.117502674
211	0xbf9c05d6	-1.2189281
212	0x40549f8c	3.322238
213	0x3f01ccfc	0.50703406
214	0x3e85f96d	0.2616686
215	0xbff7db2b	-1.936376
216	0x3da25c6c	0.07927784
217	0xbf0336b9	-0.51255375
218	0x3cd3e310	0.025865108
219	0xbd32ef98	-0.043685526
220	0xbd620bc0	-0.055186987
221	0xbefd9a34	-0.4953171
222	0xbce8ca98	-0.028416917
223	0x3f8e05ac	1.1095481
224	0xc0c17adf	-6.046249
225	0xbf326e83	-0.6969988
226	0x3dce1cb0	0.100640655
227	0x3d413a50	0.04717475
228	0xbdb40474	-0.08789912
229	0x3c285870	0.010274991
230	0xbdd2ed38	-0.10299152
231	0xbf2a2564	-0.66463304
232	0x3d4ed850	0.05049926
233	0x403ed199	2.9815428
234	0x3e302b99	0.17204131
235	0x3d5e55c4	0.05428101
236	0x3e86fe11	0.26365712
237	0x3fb07c00	1.3787842
238	0x3d9a1e4c	0.0752531
239	0xbf8c3a46	-1.0955284
240	0xbc3b7d80	-0.011443496
241	0xc011de77	-2.2792032
242	0x39e63a00	0.00043912232
243	0x3e5ff119	0.21869315
244	0xbcbf3e98	-0.023345277
245	0xbf7423b9	-0.9536701
246	0x3e899431	0.26870874
247	0x3f115f36	0.56785905
248	0x3e09fb69	0.13474812
249	0x3d9c555a	0.07633467
250	0xbd4bf136	-0.049790584
251	0xbc20f170	-0.009823188
252	0x3e12582d	0.14291449
253	0xbeff400f	-0.4985356
254	0x3e21a583	0.15785794
255	0x3f2a438e	0.6650933

bias f4 [64]
0	0xbe5bcab8	-0.2146405
1	0xbdf4f3c6	-0.119605586
2	0xbeaf638d	-0.3425564
3	0x3d3c4304	0.04596235
4	0xbf08d0e1	-0.53443724
5	0xbd94d517	-0.07267206
6	0xbdd5559a	-0.10416718
7	0xbde035cc	-0.10947761
8	0xbef4bc72	-0.47800022
9	0xbec2d511	-0.38053182
10	0xbdc54656	-0.09632556
11	0x3fbef972	1.4919875
12	0xbe26b892	-0.16281345
13	0xbe65ab99	-0.2242874
14	0xbe18f14c	-0.14935797
15	0xbdbb8948	-0.09157044
16	0xbe9f4f0f	-0.31115004
17	0xbc340d64	-0.010989521
18	0xbd958b26	-0.07301931
19	0xbd68d1a5	-0.056840558
20	0xbe499cd1	-0.19688727
21	0xbe81e4e4	-0.25369942
22	0xbdb0ec86	-0.08638863
23	0xbe96a870	-0.29425383
24	0xbf9429d9	-1.1575271
25	0xbe9bca34	-0.30427706
26	0xbdf6df46	-0.12054305
27	0xbdf2f99a	-0.11864014
28	0xbc7349e0	-0.014849156
29	0xbe42741b	-0.18989603
30	0xbda89003	-0.08230593
31	0xbd2a64eb	-0.04160015
32	0xbebe3a9b	-0.37154087
33	0xbda82e15	-0.082119144
34	0xbce11fe8	-0.027481034
35	0xbeb70854	-0.3574854
36	0xbea0cc9b	-0.31406102
37	0xbeeef82e	-0.4667372
38	0xbd1093b0	-0.035297096
39	0xbe1a03a5	-0.15040453
40	0xbd6d8eda	-0.057997562
41	0xbe175e71	-0.1478212
42	0xbdb1936c	-0.086706966
43	0xbed47c50	-0.41501093
44	0xbea2850e	-0.31742138
45	0xbd6eafc8	-0.058273107
46	0xbf0bf482	-0.54669964
47	0xbed6d3da	-0.41958505
48	0xbc9b9a88	-0.018994585
49	0xbea5a30a	-0.3235095
50	0xbe1da8e0	-0.15396452
51	0xbed71720	-0.4200983
52	0xbc38e3f0	-0.011284813
53	0xbeb4d63f	-0.35319707
54	0xbdffa200	-0.12482071
55	0xbe159dea	-0.1461102
56	0xbe9eede9	-0.31040886
57	0xbed3a33f	-0.41335484
58	0xbf6d2c28	-0.926455
59	0xbc6f5b2e	-0.014609141
60	0xbb4d3645	-0.0031312865
61	0xbe4d1fba	-0.20031634
62	0xbdffa20a	-0.124820784
63	0xbe87a4c0	-0.26492882

weight f4 [4, 64]
0	0xbe10f902	-0.14157489
1	0xbc0b78e0	-0.008512706
2	0x3e22e2d1	0.15906836
3	0x3dc2583c	0.094894856
4	0xbded10e7	-0.115754895
5	0x3d7ec5a4	0.062200204
6	0xbc920ba0	-0.017827809
7	0x3d8d60be	0.06903218
8	0xbe71f1a8	-0.23627341
9	0xbdf91470	-0.12162101
10	0xbe868744	-0.26275074
11	0xbd086870	-0.033302724
12	0x3e109bb6	0.14121899
13	0xbd0bada4	-0.034101143
14	0x3c0554b4	0.008137871
15	0x3d97134e	0.07376729
16	0xbd93e198	-0.07220763
17	0x3d8f01b4	0.06982747
18	0x3df3af15	0.118986286
19	0x3dfe8088	0.12426859
20	0x3df681c0	0.120364666
21	0xbd5b0450	-0.05347091
22	0xbe9b5f61	-0.30346206
23	0xbdac4218	-0.08411044
24	0x3f405a14	0.7513745
25	0xbdd47706	-0.103742644
26	0x3dc1bc40	0.09459734
27	0x3df8ce12	0.1214868
28	0x3d6b69a4	0.057473794
29	0xbdb8a4f2	-0.09015836
30	0xbd1db9ea	-0.03850738
31	0xbda702b8	-0.081548154
32	0xbdc37fea	-0.09545882
33	0x3dc3fa32	0.09569205
34	0xbe68f323	-0.22749
35	0xbd159198	-0.036515802
36	0xbc792bf4	-0.015208233
37	0x3dd86636	0.1056637
38	0xbde7be1d	-0.11315558
39	0x3b92bca0	0.0044780523
40	0xbe777bc1	-0.24168302
41	0xbdd500ea	-0.10400565
42	0x3e3c824c	0.1840908
43	0x3cbbb660	0.022914112
44	0x3e8b5ca5	0.2721912
45	0x3d81bfe6	0.0633543
46	0x3f2c5bef	0.6732778
47	0xbd1a8460	-0.0377239
48	0xbdc72e6e	-0.09725653
49	0xbdad66fe	-0.0846691
50	0xbccb7795	-0.024837295
51	0x3dffd91c	0.12492582
52	0x3c1f7f80	0.009734988
53	0xbdbf4a54	-0.09340349
54	0xbd7a6fbb	-0.06114171
55	0xbd8c11b2	-0.068393126
56	0x3dc0e54b	0.09418734
57	0xbd01c218	-0.031679243
58	0xbf016ffe	-0.5056151
59	0x3d33ae24	0.043867245
60	0xbea47ce8	-0.32126546
61	0xbc5e94c0	-0.013585269
62	0xbec70052	-0.38867432
63	0xbd743120	-0.05961716
64	0x3e724c3c	0.23661894
65	0xbc5ebc40	-0.013594687
66	0x3eabe3d3	0.33572254
67	0x3c2257e0	0.009908646
68	0xbd984810	-0.0743562
69	0x3df55f1c	0.11981031
70	0xbc2ef9e0	-0.010679692
71	0x3d375c70	0.04476589
72	0xbeb2a408	-0.3489077
73	0x3d6d3ba8	0.05791822
74	0x3d47afca	0.04875163
75	0x3dc2ec52	0.09517731
76	0x3e889a67	0.266803
77	0xbdb223fc	-0.0869827
78	0xbd8f11a9	-0.0698579
79	0x3d07b328	0.03312984
80	0xbdc2f03b	-0.095184766
81	0xbd408b78	-0.047008008
82	0x3d91baa6	0.071156785
83	0x3dbb83a4	0.09155968
84	0xbd14604c	-0.03622465
85	0x3d919792	0.07108988
86	0xbe691de6	-0.22765312
87	0xbd8a39da	-0.067493156
88	0xbf565c67	-0.83734745
89	0x3c56e450	0.013115957
90	0x3c4cd458	0.012501799
91	0xbd9ec3da	-0.077521995
92	0xbd357f0c	-0.044310614
93	0xbda98084	-0.082764655
94	0xbb3b00a7	-0.0028534324
95	0xbde38e70	-0.11111152
96	0x3e7bc31b	0.24586146
97	0x3c5ba6b0	0.013406441
98	0x3e1e857d	0.15480609
99	0xbd36990c	-0.04457955
100	0x3efcd106	0.49378222
101	0x3d80aac6	0.062825724
102	0x3dc42de3	0.09579065
103	0xbdda2262	-0.10651089
104	0x3e1b7f6b	0.15185325
105	0xbd950be8	-0.072776616
106	0xbe14f96a	-0.14548269
107	0xbdefec52	-0.117149964
108	0x3ddd87eb	0.1081694
109	0xbdb50158	-0.08838147
110	0x3f41aa28	0.7565026
111	0x3c649a50	0.013952807
112	0xbd7abff4	-0.061218217
113	0xbdc13098	-0.09433097
114	0xbd2b2d88	-0.04179147
115	0xbdb4872c	-0.088148445
116	0xbd987558	-0.074442565
117	0x3dad856a	0.08472712
118	0x3da334f1	0.07969082
119	0x3cbb8238	0.022889242
120	0x3b42532f	0.0029651632
121	0x3de4f7d8	0.11180085
122	0xbe3d6e32	-0.18499067
123	0xbca23108	-0.01979877
124	0x3e535d00	0.20640945
125	0x3dfdda76	0.12395184
126	0x3eb7855a	0.35843927
127	0x3cc63700	0.024196148
128	0x3d61b1ab	0.055101078
129	0xbdf1cb84	-0.11806396
130	0x3e597962	0.2123771
131	0xbe50dbce	-0.20396349
132	0x3cfa3e6e	0.030547347
133	0x3e47bc9e	0.19505545
134	0x3d816dea	0.063197926
135	0xbdf52c9d	-0.119714
136	0x3e604b85	0.21903808
137	0x3d38f92f	0.045159515
138	0x3e56ad5c	0.20964569
139	0xbee2721e	-0.4422769
140	0x39f15ca9	0.0004603614
141	0xbe632ec9	-0.22185816
142	0x3d8d13f7	0.068885736
143	0x3d00d1a4	0.03144993
144	0xbca26be1	-0.019826831
145	0x3d3ae514	0.045628622
146	0xbd20e748	-0.039283067
147	0x3e8b56d7	0.2721469
148	0x3dcabf79	0.09899802
149	0xbe8287bd	-0.25494185
150	0xbd628085	-0.055298347
151	0x3e64a98b	0.223303
152	0x3e820d13	0.254006
153	0xbdefc0c7	-0.11706691
154	0x3e167d0b	0.14696138
155	0xbd0f553a	-0.034993388
156	0xbdb7b7e2	-0.0897062
157	0xbe86fab8	-0.26363158
158	0x3bee1418	0.007265579
159	0xbe556dcd	-0.20842667
160	0xbaccdab0	-0.0015629139
161	0x3d828960	0.063738585
162	0x3e30914b	0.17242925
163	0xbdab112b	-0.08352884
164	0x3e9d51cd	0.30726472
165	0xbea644e1	-0.32474425
166	0xbd1df34e	-0.03856211
167	0xbea43a51	-0.32075742
168	0xbcf26852	-0.02959076
169	0x3d0afcc9	0.03393248
170	0x3e4a4422	0.19752553
171	0x3f8e797b	1.1130823
172	0x3deda776	0.11604206
173	0xbda93537	-0.08262103
174	0xbeb2bca4	-0.34909546
175	0x3f565876	0.8372873
176	0x3ce319c0	0.02772224
177	0x3e0ab14d	0.13544197
178	0xbd0e1533	-0.034688186
179	0x3e884a17	0.26619026
180	0xbac5e900	-0.0015099347
181	0x3e6f02e1	0.23340942
182	0x3e28f8ee	0.16501209
183	0x3e32888c	0.17434901
184	0xbd9377b4	-0.07200566
185	0x3e411c63	0.18858485
186	0xbf402b3f	-0.7506599
187	0xbe341bed	-0.17588778
188	0x3de020a3	0.10943725
189	0x3e0e2582	0.13881496
190	0x3e3c3e70	0.18383193
191	0x3d80d146	0.06289916
192	0xbda2f26e	-0.07956396
193	0x3cbd4f20	0.023109019
194	0x3e8432e4	0.25820076
195	0x3ef50615	0.47856203
196	0x3e08f679	0.13375272
197	0xbe921dc0	-0.28538322
198	0x3dc83344	0.09775403
199	0x3cb2cc75	0.021826008
200	0x3ed6e4db	0.41971478
201	0xbf2d6472	-0.6773139
202	0xbdce6a29	-0.10078842
203	0xbf61f2ed	-0.882613
204	0x3db0abf3	0.08626547
205	0xbe6e0577	-0.23244272
206	0x3cfc5dfb	0.030806532
207	0x3d855e4b	0.065121256
208	0xbdd08a2a	-0.10182603
209	0x3d4e72b8	0.050402373
210	0xbd32536d	-0.043536592
211	0xbe43e547	-0.19130431
212	0x3e6e5e50	0.23278165
213	0xbe906137	-0.2819917
214	0xbda0952c	-0.07840952
215	0x3e876a02	0.26448065
216	0x3f007dec	0.5019214
217	0xbe79680d	-0.24356098
218	0x3dab06b1	0.08350886
219	0xbc69531e	-0.014241008
220	0x3dfa4a14	0.122211605
221	0xbe7f785a	-0.24948254
222	0x3d3bfc62	0.045894988
223	0x3d0fe3ad	0.035129238
224	0xbe075985	-0.13217743
225	0x3d7e81a9	0.062135372
226	0xbdbb5eab	-0.09148916
227	0x3eb2470e	0.34819835
228	0x3e65c80c	0.22439593
229	0xbe04e4d2	-0.12977913
230	0xbd0d0da6	-0.034436844
231	0xbc98a4ab	-0.018633207
232	0xbda869fc	-0.0822334
233	0xbc1172f2	-0.008877503
234	0x3bef1bcf	0.007297016
235	0xbf0b134b	-0.54326314
236	0x3da7e0d8	0.081971824
237	0xbc90b3b8	-0.017663822
238	0xbe068ba1	-0.13139202
239	0xbea21826	-0.3165905
240	0x3d97c82e	0.07411228
241	0x3e927871	0.28607515
242	0x3dcb6840	0.099319935
243	0x3e511f08	0.20421994
244	0x3c084f40	0.008319676
245	0x3e4a4a3b	0.19754879
246	0xbd1e2039	-0.03860495
247	0x3c91d88d	0.017803455
248	0xbd1768fb	-0.03696535
249	0x3e6c533f	0.23078631
250	0x3f8ffa37	1.1248235
251	0xbd0b5ffc	-0.034027085
252	0xbdcd9a21	-0.100391634
253	0x3e87caec	0.26522005
254	0xbe450e4c	-0.19243735
255	0xbf06bd97	-0.5263304

bias f4 [4]
0	0xbf4089d4	-0.7521031
1	0x3e9a4a67	0.3013489
2	0xbf7c9287	-0.98661083
3	0xc0503806	-3.2534194

weight f4 [64, 27]
0	0xbdd0611c	-0.10174772
1	0x3e373994	0.17893058
2	0xbe9532cd	-0.2914032
3	0xbeb46fd2	-0.35241562
4	0xbe8000cb	-0.25000605
5	0x3d1de77e	0.038550846
6	0xbd86559b	-0.06559297
7	0xbe26bd85	-0.16283233
8	0xbe80795b	-0.25092587
9	0xbe379be4	-0.17930561
10	0xbe803d29	-0.25046661
11	0xbe2a7123	-0.1664472
12	0xbee4998e	-0.44648403
13	0xbe42f5b6	-0.19039044
14	0xbdbe2b58	-0.09285611
15	0x3dfd76a8	0.123761475
16	0xbdb79115	-0.08963219
17	0xbef0925f	-0.46986672
18	0xbebb81e3	-0.36622533
19	0xbd440283	-0.047853958
20	0x3e36de5a	0.17858258
21	0x3e90d2bb	0.28285775
22	0xbdfdbd42	-0.12389614
23	0xbe4eed25	-0.20207651
24	0xbb40be0f	-0.0029410159
25	0xbe4e1d8a	-0.20128456
26	0xbe5c9bdf	-0.21543835
27	0x3c80ca05	0.01572133
28	0xbcb535eb	-0.022120437
29	0xbf52fa3e	-0.8241309
30	0xbe3b6cb7	-0.1830319
31	0x3d2e35eb	0.04253189
32	0x3e64f770	0.22360015
33	0x3e3287bc	0.17434591
34	0xbf0451b0	-0.51687145
35	0xbdeceebb	-0.11568972
36	0x3eaaec7c	0.33383548
37	0x3f0d1247	0.55106014
38	0x3e9138be	0.28363603
39	0xbefc491d	-0.4927453
40	0xbdd96fe7	-0.10617047
41	0x3e8c4806	0.273987
42	0x3f07ed22	0.5309621
43	0x3f3915a4	0.72298646
44	0xbf816930	-1.0110226
45	0xbec83a52	-0.39106995
46	0x3d1bc6ec	0.038031504
47	0x3f70c12b	0.9404475
48	0x3e0fbdf9	0.14037313
49	0xbfc3a10e	-1.5283525
50	0xbf41fde3	-0.75778025
51	0x3eac669c	0.33672035
52	0xbe9f5d87	-0.31126043
53	0x3f292195	0.6606687
54	0xbc53a243	-0.012917104
55	0x3c932cde	0.01796573
56	0xbdfeea77	-0.12447064
57	0xbe3f538d	-0.18684216
58	0xbddbd56c	-0.10734066
59	0xbd8ea97f	-0.069659226
60	0xbdf36b69	-0.11885721
61	0xbda8e019	-0.08245868
62	0xbe29f4b8	-0.16597259
63	0x3daf32f3	0.0855464
64	0xbe33a935	-0.17545016
65	0x3d978ce7	0.07399922
66	0x3dd2f873	0.10301294
67	0xbdd970f3	-0.106172465
68	0xbd662565	-0.056188006
69	0x3d9fa9a5	0.07796029
70	0xbd92589f	-0.071458094
71	0x3dcfb7fb	0.10142513
72	0xbd851f79	-0.065001436
73	0x3c1f011e	0.009704856
74	0xbd231e28	-0.03982368
75	0x3cf1c064	0.029510684
76	0x3e059074	0.13043386
77	0x3e1c9c84	0.15294081
78	0x3e2325b5	0.15932353
79	0xbdeedcec	-0.11663231
80	0xbe2571bd	-0.16156669
81	0x3df5e64b	0.120068155
82	0x40558069	3.3359625
83	0x4024ab4b	2.572955
84	0x409ebe75	4.960749
85	0x40b6624b	5.6994987
86	0x40d57215	6.670176
87	0x40d37e36	6.6091566
88	0xbfa503ea	-1.289182
89	0x401f0f27	2.4852998
90	0x4087a86f	4.2393107
91	0x40a2f35a	5.092206
92	0x409330a9	4.59969
93	0xc03faa97	-2.994787
94	0x3f99f733	1.2028564
95	0x406d37c3	3.7065284
96	0x40ad308b	5.4121757
97	0x40b9ab89	5.8021894
98	0xc066cd40	-3.6062775
99	0x3f932f64	1.1498837
100	0x40357ece	2.8358645
101	0x4078324e	3.8780704
102	0x4085ac2d	4.1772676
103	0xc05a693c	-3.412673
104	0x4004d3ec	2.0754347
105	0x40e13b02	7.038453
106	0x40ced918	6.4640007
107	0x40aaefba	5.3417635
108	0x3bee86af	0.007279239
109	0xbe231bae	-0.15928528
110	0x3d769877	0.060203996
111	0xbe010729	-0.12600388
112	0xbe15c9d8	-0.14627779
113	0xbd28d40e	-0.041217856
114	0xbe2f67c9	-0.17129435
115	0xbd616939	-0.05503199
116	0xbd52c89a	-0.05146084
117	0xbde99593	-0.11405482
118	0xbe19d7c6	-0.15023717
119	0xbdd84924	-0.105608255
120	0x3e37fd92	0.17967823
121	0x3da5683e	0.08076523
122	0xbe3df522	-0.18550542
123	0xbc3138f4	-0.010816801
124	0xbe430ba2	-0.19047406
125	0xbb4abac9	-0.0030934087
126	0x3dbe982c	0.09306368
127	0x3e069708	0.13143551
128	0xbc2972a3	-0.010342273
129	0x3d67be47	0.056577947
130	0x3e40f718	0.18844259
131	0xbe1b5f38	-0.15173042
132	0x3d0b016b	0.0339369
133	0x3e21c0a5	0.15796144
134	0x3d46bafa	0.04851816
135	0x3b63271b	0.003466076
136	0x3db117da	0.086471274
137	0xbeb651b5	-0.35609213
138	0x3f7ea829	0.9947534
139	0x3f7b9d82	0.9828721
140	0x3fb7f115	1.4370447
141	0x3fb5443d	1.416145
142	0xc06c392f	-3.6909902
143	0xbf820cea	-1.0160191
144	0xbf43286e	-0.76233566
145	0x3d7eaa2f	0.06217402
146	0xbee63fa4	-0.4497043
147	0xc0aeacc9	-5.458592
148	0xc007fb79	-2.1247237
149	0xbfb80b2b	-1.4378408
150	0xbddf9b9d	-0.10918353
151	0xc020f880	-2.5151672
152	0xc0c7eccb	-6.2476554
153	0xc04962b8	-3.1466503
154	0xbed3474b	-0.4126533
155	0x3f9469b6	1.159476
156	0xbf8241ed	-1.0176369
157	0xc0ab2fa3	-5.349565
158	0xbfb9e871	-1.452406
159	0xbf9d1687	-1.22725
160	0xc032ad93	-2.7918441
161	0xc092366c	-4.5691433
162	0x3e15fd92	0.1464751
163	0x3de65ef6	0.11248581
164	0x3dea6f9c	0.11447069
165	0x3cddb684	0.02706457
166	0xbe76dad7	-0.24106918
167	0x3cacc1cd	0.021088505
168	0x3d685fc8	0.05673197
169	0xbdaa65c0	-0.083201885
170	0xbdb7a77e	-0.089674935
171	0xbdfd9fcc	-0.123839945
172	0x3d556ec5	0.05210759
173	0xbd91d028	-0.07119781
174	0xbcb47d09	-0.022032278
175	0x3d5f7019	0.054550264
176	0x38aa7500	8.128025e-05
177	0xbe5c4dd9	-0.21514072
178	0xbca46d19	-0.020071553
179	0xbd6233be	-0.055225126
180	0xbe1a831c	-0.15089077
181	0x3d03f3b2	0.032214828
182	0x3ddfe39a	0.109320834
183	0x3df70c8c	0.1206294
184	0xbe671004	-0.22564703
185	0xbe3596c8	-0.177333
186	0xbe079b65	-0.13242872
187	0xbe19a562	-0.15004495
188	0xbe1e212c	-0.15442342
189	0xbc501679	-0.01270067
190	0xbcf408ba	-0.029789317
191	0xc10bda56	-8.740805
192	0xc0c6d9bd	-6.2140794
193	0xc076ca24	-3.8560877
194	0xc11aa06c	-9.6641655
195	0xc0e373f0	-7.1079025
196	0xbf12764a	-0.57211745
197	0xc0342e6e	-2.8153338
198	0xc093e8cc	-4.6221676
199	0xc0988c83	-4.7671523
200	0xbff58cce	-1.9183595
201	0x408fe8b6	4.497157
202	0xbfc88687	-1.5666054
203	0xc0295d15	-2.6463063
204	0x4029b48a	2.6516442
205	0xc022da58	-2.5445766
206	0x40e73a35	7.2258554
207	0xbdd42bc3	-0.103599094
208	0xbe18ccfb	-0.14921944
209	0x3f959c5d	1.1688343
210	0x40baeed4	5.841654
211	0x410a7953	8.65462
212	0x3c94304b	0.018089434
213	0xbe83f2ac	-0.2577108
214	0xc08dd977	-4.432796
215	0x407fb121	3.995186
216	0xbe19705d	-0.1498427
217	0x3e0ffe3d	0.14061828
218	0x3e09b821	0.13449146
219	0xbf035e88	-0.5131612
220	0xbf1d95aa	-0.61556494
221	0xbf840c2c	-1.0316215
222	0xbf910f49	-1.133279
223	0x3e5c1167	0.21491013
224	0xbe74659e	-0.23866889
225	0xbf5f076c	-0.871207
226	0xbf87629b	-1.0576967
227	0xbf5cbb20	-0.8622303
228	0x3e6d2064	0.23156887
229	0xbecf5bc0	-0.40499687
230	0xbf97cad2	-1.1858771
231	0xbf8ba438	-1.090949
232	0xbfa3b503	-1.2789615
233	0x3e12055c	0.14259857
234	0xbf014198	-0.50490713
235	0xbefa6caf	-0.48911044
236	0xbf07201e	-0.5278338
237	0xbea9e638	-0.33183455
238	0x3ed7b242	0.42128187
239	0xbe7a59dc	-0.24448341
240	0xbf6821b1	-0.9067641
241	0xbfbbf861	-1.4685174
242	0xbfa1611b	-1.2607759
243	0xbded2e5d	-0.11581109
244	0xbca12790	-0.019672185
245	0xbca20e41	-0.019782187
246	0x3da24908	0.07924086
247	0xbe77b05f	-0.24188374
248	0xbc8b1961	-0.016979875
249	0x3ddecd07	0.108789496
250	0xbdd7b297	-0.1053211
251	0xbe1eb489	-0.15498556
252	0xbe36e3d7	-0.17860352
253	0xbe4befa1	-0.1991563
254	0xbe4ee6c9	-0.20205225
255	0xbd2f9535	-0.042866904

bias f4 [64]
0	0xbbc6e7f5	-0.006070132
1	0xbdcea1b8	-0.10089439
2	0xbdce3ffe	-0.10070799
3	0xc107ffe8	-8.499977
4	0xbd0301fd	-0.031984318
5	0xbeb3e3e4	-0.35134804
6	0xbdfd9c2b	-0.12383302
7	0xbdada704	-0.08479121
8	0xbbee28b3	-0.0072680353
9	0xbe3b6c96	-0.18303141
10	0xbd3d9d45	-0.046292562
11	0xbed0291a	-0.40656358
12	0xbda2a74d	-0.07942066
13	0xbe17d20b	-0.14826219
14	0xbe159cad	-0.14610548
15	0xbd9bf6b3	-0.076154135
16	0x3dce62e9	0.10077459
17	0x3da24ef6	0.07925217
18	0xbe2ba483	-0.16761975
19	0xbff6b8be	-1.9275129
20	0xbccd6180	-0.025070906
21	0xbe723e5d	-0.23656602
22	0xbd012e02	-0.031538017
23	0xbe544147	-0.20728026
24	0xbb64be3f	-0.0034903435
25	0xbf9ae1dd	-1.2100178
26	0xbc216871	-0.009851561
27	0x3e25047a	0.16114989
28	0x3eac41d3	0.3364397
29	0xbe5e6676	-0.21718773
30	0xbd78d3de	-0.060748927
31	0x3e9ba9fd	0.30403128
32	0xbf36fd9e	-0.7148074
33	0xbeab77cc	-0.33489835
34	0xbde4be9b	-0.111691676
35	0xbc16fd04	-0.009215597
36	0xbdbd612e	-0.09247051
37	0xbed94f36	-0.42443246
38	0xbe3b78e7	-0.1830784
39	0xbfa95a38	-1.3230658
40	0xbd3b7f1f	-0.04577553
41	0x3eb1b8b9	0.34711245
42	0xbcb9e5cc	-0.022692584
43	0xbe32264c	-0.17397422
44	0xbbe6f671	-0.007048421
45	0x3d30b7a8	0.0431439
46	0xbbd8acfd	-0.0066124187
47	0xbdb61ed4	-0.08892599
48	0xbdcb52e1	-0.09927917
49	0x3e7b9b4d	0.24570961
50	0xbe751899	-0.23935165
51	0xbdb1f8d8	-0.08690041
52	0xbc9e543d	-0.019327277
53	0x3e97273e	0.29522127
54	0xbdee48ee	-0.11635004
55	0xbe3ed8ca	-0.18637386
56	0xbdd6022d	-0.10449634
57	0xbebabac3	-0.36470613
58	0xbe765baa	-0.24058405
59	0x3e8e11aa	0.27747852
60	0xbe3d3be6	-0.1847988
61	0xbe5b6aed	-0.21427508
62	0xbdadeb2c	-0.08492121
63	0x3e1555ca	0.14583507

weight f4 [64, 64]
0	0xbd7b952c	-0.06142156
1	0x3d0b7c0c	0.034053847
2	0x3de0dae8	0.10979253
3	0x3d308ed8	0.043104976
4	0x3daf0eb4	0.08547726
5	0xbd678e3c	-0.05653213
6	0x3c5c0990	0.013430014
7	0xbd805752	-0.06266655
8	0xbeea2a85	-0.45735565
9	0x3d4b4068	0.04962197
10	0xbefeaada	-0.49739724
11	0x3d1a9c00	0.03774643
12	0xbc17de8c	-0.009269368
13	0xbd6ead0c	-0.0582705
14	0xbee1bfea	-0.4409173
15	0xbd7988c4	-0.060921445
16	0xbdbaae43	-0.09115269
17	0xbdb00ddc	-0.085963935
18	0xbe897ca9	-0.2685292
19	0xbd6c3b38	-0.057673663
20	0xbeb8b0cc	-0.36072385
21	0x3d1ef804	0.038810745
22	0xbc835b10	-0.016034633
23	0x3c4cc0c0	0.012497127
24	0xbe8e4f35	-0.27794805
25	0xbc41f870	-0.011839017
26	0x3d5f73d4	0.05455382
27	0x3cd6ca08	0.026219383
28	0xbdd6f912	-0.10496725
29	0x3dc72a68	0.09724885
30	0xbe6a1b14	-0.22861892
31	0xbdd955ea	-0.1061209
32	0xbd5e7d10	-0.054318488
33	0xbd6095b8	-0.054830283
34	0xbd3c58fc	-0.0459833
35	0xbd97c8c4	-0.0741134
36	0xbc3844d0	-0.011246875
37	0x3b088b00	0.0020834804
38	0x3bd68ee0	0.0065477937
39	0x3d807f48	0.06274277
40	0x3ba40ba0	0.0050062686
41	0x3d9877d0	0.074447274
42	0xbebc7d60	-0.36814404
43	0x3dce371a	0.100691035
44	0x3d20769c	0.039175615
45	0xbd855924	-0.06511143
46	0xbeb845df	-0.35990807
47	0xbddc1f48	-0.10748154
48	0xbde31b42	-0.110891834
49	0xbc8c4e60	-0.017127216
50	0xbecc547c	-0.39908206
51	0xbc9e1030	-0.019294828
52	0xbee67f29	-0.4501889
53	0x3d9f3b74	0.07775012
54	0x3da0a890	0.07844651
55	0x3d70d288	0.05879453
56	0xbb0e57c0	-0.0021719784
57	0xbc170ee0	-0.009219855
58	0xbeb79d45	-0.35862175
59	0xbd01af64	-0.031661406
60	0x3d92185c	0.071335524
61	0x3d4b6ec0	0.049666166
62	0x3bb9bb00	0.005668044
63	0x3de8c3c4	0.11365464
64	0x3dcc0db6	0.09963553
65	0x3da97716	0.08274667
66	0x3dde7120	0.10861421
67	0xbddabcf8	-0.10680574
68	0x3da022d8	0.07819146
69	0xbe1133d8	-0.14179933
70	0x3dce0632	0.100597754
71	0xbe0f0382	-0.13966182
72	0xbdcc6486	-0.09980111
73	0x3dd66402	0.10468294
74	0xbe3f83d6	-0.18702635
75	0xbcc4166e	-0.023936477
76	0x3c0ef8b1	0.008726285
77	0xbdca16a6	-0.09867601
78	0xbbd0eaf9	-0.006375667
79	0xbbce7c13	-0.006301412
80	0x3c501ca1	0.012702138
81	0xbdfdd20a	-0.123935774
82	0xbd11555c	-0.035481796
83	0x3d3eb33c	0.04655765
84	0x3ce459e0	0.027874887
85	0x3d0781b8	0.033082694
86	0xbdc2f8be	-0.095201
87	0xbd5cc408	-0.053897887
88	0x3c736ac5	0.014856999
89	0xbbb40160	-0.005493328
90	0xbbfe2e40	-0.0077569783
91	0xbe03c3d0	-0.12867665
92	0x3d9854a2	0.074380174
93	0x3d94899e	0.07252811
94	0x3d422889	0.04740194
95	0xbe2fd959	-0.17172755
96	0xbda87df9	-0.082271524
97	0xbd69c548	-0.057072908
98	0xbd828824	-0.06373623
99	0xbe1029ac	-0.14078397
100	0x3d76ad34	0.060223773
101	0xbc2daec2	-0.010600748
102	0x3df8adba	0.12142511
103	0xbd87cf26	-0.06631307
104	0x3dfee8d4	0.12446752
105	0xbe13df8f	-0.1444075
106	0x3d4288ea	0.047493853
107	0x3d39a83c	0.045326456
108	0x3dcf6a70	0.10127723
109	0x3a47b200	0.00076177716
110	0xbc71985b	-0.014745797
111	0xbd627a5e	-0.05529248
112	0x3db710e4	0.089387685
113	0x3d816506	0.06318097
114	0x3d3317f2	0.043724008
115	0xbdda42a2	-0.106572405
116	0xbe2c014a	-0.16797367
117	0xbe0a90ee	-0.13531849
118	0x3db8dfe0	0.09027076
119	0xbda3f7ce	-0.08006249
120	0xbdb956ac	-0.090497345
121	0xbdc8662a	-0.09785111
122	0xbdda65c4	-0.106639415
123	0xbe029740	-0.1275301
124	0x3d2707d4	0.04077895
125	0xbdb33978	-0.08751196
126	0xbd5cfff8	-0.05395505
127	0xbe03748d	-0.1283743
128	0xbf126c30	-0.5719633
129	0xbc0a6670	-0.008447275
130	0xbc033c60	-0.00801
131	0xbb26d380	-0.0025455654
132	0xbd3f1e20	-0.04665959
133	0xbaa05080	-0.0012231022
134	0x3b6a0680	0.003570944
135	0x3dbda3ae	0.09259735
136	0x3e33267c	0.1749515
137	0xbdfc418a	-0.12317188
138	0x3e8117d0	0.2521348
139	0xbc3b6130	-0.0114367455
140	0x402eb8bb	2.730025
141	0xbd5c8f10	-0.053847373
142	0x3fd7c623	1.6857342
143	0x3d97c710	0.07411015
144	0x3f971be9	1.1805393
145	0xba9d2680	-0.0011989623
146	0x408bcbea	4.368642
147	0xbc06a450	-0.008217886
148	0x3e70742e	0.23481819
149	0x3d912898	0.07087821
150	0x3dc014c2	0.09378959
151	0x3da00212	0.07812895
152	0xbdc41647	-0.095745616
153	0x3dd2a0f6	0.10284607
154	0xbef4db52	-0.47823578
155	0x3dc85cfe	0.09783362
156	0xc0d5bc2b	-6.6792197
157	0x3d890188	0.06689745
158	0x408e1b57	4.4408374
159	0xbdc332fc	-0.09531209
160	0x3fa79aaf	1.3094081
161	0xbd5d9a60	-0.0541023
162	0x3dfbeac8	0.1230064
163	0xbdd0f582	-0.10203077
164	0xbdc738fe	-0.09727667
165	0x3cabe318	0.02098231
166	0xbd311378	-0.043231457
167	0x3add8080	0.0016899258
168	0xbddb34c4	-0.107034236
169	0x3de3df18	0.11126536
170	0x3cf4f9fe	0.029904362
171	0x3dee1bce	0.11626397
172	0xbddb408c	-0.10705671
173	0x3dc3a0de	0.09552167
174	0x3e1d5b00	0.15366745
175	0x3cfdb2e0	0.030969083
176	0x3b4e8500	0.003151238
177	0xbc99e860	-0.018787563
178	0x40c76b74	6.231867
179	0x3dc27c10	0.09496319
180	0x3ece7cbb	0.40329537
181	0xbd4b5028	-0.04963699
182	0x3dd74820	0.105118036
183	0x3d944f90	0.07241738
184	0x3b5c3680	0.003360182
185	0x3d7dfbc4	0.06200768
186	0x400421b6	2.0645576
187	0x3de15328	0.11002189
188	0x3d872bdc	0.066001624
189	0x3d7ceccc	0.061749265
190	0xbd1b52c8	-0.037920743
191	0x3d3ade4c	0.045622155
192	0xbdc1e4a4	-0.09467438
193	0xbd5e8164	-0.054322615
194	0x3d9f8dc8	0.077907145
195	0xbdbc3716	-0.09190194
196	0xbd8a1c14	-0.06743637
197	0x3e5fda3a	0.2186059
198	0xbdf726ba	-0.120679334
199	0xbe65cf6c	-0.22442406
200	0x3dd7f464	0.10544661
201	0xbd486a50	-0.048929513
202	0x3b6faf80	0.0036573112
203	0xbced926a	-0.02900048
204	0xbea7000c	-0.32617223
205	0xbd1bc4d4	-0.038029507
206	0xbec942c3	-0.39308748
207	0xbe796772	-0.24355868
208	0xbe12fd46	-0.14354429
209	0xbe824ca4	-0.25449097
210	0xbe76d5f4	-0.24105054
211	0xbe8e1275	-0.27748457
212	0xbe8a6a11	-0.27034047
213	0x3dc0e75c	0.09419128
214	0x3ce922d0	0.028458983
215	0xbea0a42f	-0.31375262
216	0xbd591fb8	-0.053008765
217	0xbdc982be	-0.0983939
218	0x3ddf7856	0.10911624
219	0xbe77ac04	-0.24186713
220	0xbed96d95	-0.42466417
221	0xbdb4fda6	-0.08837442
222	0xbeb3d0a1	-0.3512011
223	0xbe8a8a0c	-0.27058446
224	0xbe690fca	-0.2275993
225	0xbdf7ac76	-0.12093441
226	0x3d973d22	0.07384707
227	0xbf1ea0ab	-0.6196391
228	0x3d02ea4c	0.031961724
229	0xbe85cd4d	-0.26133195
230	0x3be46700	0.0069702864
231	0xbeccaf70	-0.39977598
232	0x3abf6000	0.0014600754
233	0xbe88cc9c	-0.26718605
234	0xbdd877c8	-0.105697215
235	0xbd9afb8a	-0.075675085
236	0x3c1bd250	0.009510592
237	0xbea123bf	-0.31472585
238	0xbdd7d32c	-0.10538325
239	0xbdd49942	-0.10380794
240	0x3d535a8c	0.051600024
241	0xbeb070a2	-0.34460932
242	0xbe866e48	-0.26256013
243	0xbc240120	-0.010010034
244	0x3d384a28	0.044992596
245	0xbed85450	-0.42251825
246	0x3d77b7dc	0.060478076
247	0xbb1147c0	-0.002216801
248	0xbdb3ae5c	-0.08773491
249	0x3e8836fc	0.2660445
250	0xbd95e15e	-0.07318376
251	0xbf13ec02	-0.57781994
252	0x3dfdc172	0.123904124
253	0xbcf8911e	-0.030342635
254	0x3da68930	0.08131635
255	0xbe1f0137	-0.15527807

bias f4 [64]
0	0xbe9b9ef5	-0.30394712
1	0xbe3dc19b	-0.18530886
2	0xc099d279	-4.8069425
3	0xbf1ceeef	-0.61302084
4	0xbe04518a	-0.1292173
5	0xc018b5df	-2.3861005
6	0xbea48c38	-0.32138228
7	0xbec90343	-0.392603
8	0xbca5dda4	-0.020247288
9	0xbe075bba	-0.13218585
10	0xbde67074	-0.112519175
11	0x3e6b4756	0.22976431
12	0xbdf5aaae	-0.11995445
13	0xbd9fb1f2	-0.07797612
14	0xbe4ab34e	-0.19794962
15	0x3edd2711	0.43193868
16	0xbddfd7d5	-0.109298386
17	0xbf6d6ff0	-0.9274893
18	0xbe5db25f	-0.21650074
19	0xbdd32191	-0.10309137
20	0xbe2bb52b	-0.16768329
21	0xbf87c648	-1.0607386
22	0xbea6cf9d	-0.3258027
23	0xc02619a9	-2.5953162
24	0xbd965962	-0.07341267
25	0xbca6c349	-0.020356791
26	0xbdc80ec7	-0.097684436
27	0xbed2f4b4	-0.4120232
28	0xbeaac85c	-0.33355987
29	0xbe78e89b	-0.24307482
30	0xc00b869d	-2.1800911
31	0xbe4d327f	-0.20038794
32	0xbea52592	-0.32255226
33	0xbec37013	-0.38171443
34	0xbf010e6c	-0.5041263
35	0xbfb8602b	-1.4404348
36	0xbca6ee8b	-0.020377418
37	0xbe8ef165	-0.27918544
38	0xbebcd0eb	-0.36878142
39	0xbeab3e03	-0.3344575
40	0xbdf8b602	-0.1214409
41	0xbf2d65f8	-0.67733717
42	0xbecd00c7	-0.40039656
43	0xbe2daccc	-0.16960448
44	0xc0817fbe	-4.0468435
45	0xbf865061	-1.049328
46	0xbe0ed50e	-0.13948461
47	0xbe92fd29	-0.2870877
48	0xbeabaaa5	-0.3352863
49	0xbe8d7bbe	-0.2763347
50	0xbdea66ac	-0.11445364
51	0xbea1547e	-0.31509775
52	0xbf0b4f38	-0.54417753
53	0xbf9aadaa	-1.2084248
54	0xbf40ff90	-0.7538996
55	0xbf2b2787	-0.6685719
56	0xbe21cecc	-0.15801543
57	0xbe986223	-0.29762372
58	0xbe2c6e4c	-0.1683895
59	0xbf71d2f3	-0.9446251
60	0xbfd0182f	-1.625738
61	0xc0127e15	-2.2889454
62	0xbd4b56ce	-0.04964333
63	0xbd75dcad	-0.060024906

weight f4 [4, 64]
0	0x3d4a65a5	0.049413342
1	0xbcee1a32	-0.029065225
2	0xbe754d19	-0.23955192
3	0x3f097fda	0.5371071
4	0x3eb0b9ff	0.34516904
5	0x3dae98a8	0.085252106
6	0x3e65cc61	0.22441246
7	0x3eb9c30b	0.36281618
8	0xbdb5d790	-0.08879006
9	0xbde517b7	-0.11186164
10	0xbd4863e8	-0.048923403
11	0xc0a9c60a	-5.3054247
12	0x3e0b2e84	0.13591963
13	0x3c30b81f	0.010786085
14	0xbc591d35	-0.013251592
15	0xc0d02f13	-6.5057464
16	0xbd80ede5	-0.06295375
17	0xbe1f3444	-0.15547282
18	0xbd627ea0	-0.05529654
19	0x3e2303a7	0.15919362
20	0xbc11896e	-0.008882863
21	0xbc60f985	-0.013731365
22	0x3e9923cd	0.29910126
23	0x402a0dc9	2.6570914
24	0xbd2c1c80	-0.042019367
25	0xbde5b6ed	-0.11216531
26	0x3d3538d0	0.044243634
27	0xbead4f82	-0.33849722
28	0x3ece2f9e	0.40270704
29	0xbd3de408	-0.046360046
30	0x3ef67615	0.48136964
31	0xbec8d2f2	-0.39223439
32	0x3c821dc2	0.01588333
33	0xbe88d984	-0.2672845
34	0xbe7022c0	-0.23450756
35	0x3e7a35ec	0.24434632
36	0xbb2f82cb	-0.002678084
37	0xbdb6abdf	-0.089195006
38	0x3f293c4d	0.66107637
39	0x3dcbd8a7	0.099534325
40	0x3dcc2e3c	0.09969756
41	0xbee14440	-0.43997383
42	0x3e6757e0	0.22592115
43	0x3d565bbe	0.052333586
44	0xbee42772	-0.44561344
45	0xbf319273	-0.6936409
46	0xbe0ab155	-0.1354421
47	0xc0aa421b	-5.3205695
48	0xbd7edec0	-0.06222415
49	0xbd14c026	-0.03631606
50	0x3e246a76	0.16056237
51	0x3d96d783	0.07365324
52	0x3dd72de1	0.105067976
53	0x401d8920	2.4614944
54	0xbf99baa9	-1.2010089
55	0x3e8acce1	0.27109435
56	0x3e490b82	0.19633296
57	0xbebeb495	-0.37247148
58	0xbc54ba34	-0.012983847
59	0x403466e9	2.8187811
60	0xbf02748e	-0.509591
61	0xc0ea0aac	-7.3138027
62	0xbe53e36f	-0.20692228
63	0xbcffe9ee	-0.031239476
64	0x3d9fd11e	0.07803558
65	0xbd03251c	-0.032017812
66	0x3b5fe9b9	0.003416641
67	0xbe125b24	-0.1429258
68	0x3ddab2c9	0.10678632
69	0xbea36c20	-0.3191843
70	0x3e6e900f	0.23297141
71	0x3e6c84c4	0.23097521
72	0xbe18ed70	-0.14934325
73	0x3d965f40	0.07342386
74	0x3b7e46c0	0.0038799495
75	0x3eccd816	0.4000861
76	0x3d98ad1a	0.074548915
77	0x3cdc7316	0.026910346
78	0x3de26c21	0.1105578
79	0x3e9c65a3	0.30546293
80	0xbd35449e	-0.04425489
81	0x3e3f615a	0.1868948
82	0xbd8f7cb4	-0.07006207
83	0x3e070bc8	0.13188088
84	0xbdf1a4c3	-0.11799004
85	0x3e16d2c4	0.14728838
86	0x3cb11948	0.0216185
87	0xbdbdda61	-0.09270168
88	0x3b5e1380	0.0033886135
89	0xbc90c3c3	-0.017671471
90	0xbc13c118	-0.009018205
91	0xbe266564	-0.16249615
92	0x3e74206c	0.23840493
93	0x3d71204f	0.058868703
94	0xbe089ddc	-0.13341469
95	0xbe85f3a8	-0.26162457
96	0x3e6ee9cc	0.23331374
97	0x3e8750dc	0.26428878
98	0xbe48d70f	-0.19613288
99	0x3ed68b0a	0.41902953
100	0xbd67d769	-0.056601916
101	0x39dd49df	0.00042207443
102	0xbe88c1eb	-0.26710448
103	0x3dae9c49	0.08525903
104	0x3c712c00	0.014719963
105	0xbe6234a6	-0.22090396
106	0x3e3ee50d	0.18642063
107	0xbdfde09a	-0.12396355
108	0xbdab19ec	-0.083545536
109	0xbe2b3829	-0.16720642
110	0xbce83945	-0.02834762
111	0x3e2c9096	0.1685203
112	0xbe99e44d	-0.30056992
113	0x3d831752	0.06400932
114	0xbd1f5cf8	-0.03890702
115	0x3ddcdf52	0.107847825
116	0xbe1b6576	-0.15175423
117	0x3d1ae743	0.037818205
118	0x3e5856ad	0.21126814
119	0xbdd0acd7	-0.101892166
120	0x3d9cb4eb	0.07651695
121	0x3e9d143a	0.30679494
122	0xbd5eed33	-0.05442543
123	0x3ed7e805	0.42169204
124	0xbf5c0d96	-0.8595823
125	0x3edde605	0.43339553
126	0xbda55d85	-0.08074478
127	0x3b8d0d0f	0.004304535
128	0x3db21090	0.08694565
129	0x3da47c62	0.08031537
130	0x416c5de3	14.772922
131	0xbdd63986	-0.104601905
132	0x3ddb262c	0.1070064
133	0xbddacab8	-0.10683197
134	0xbe64cdd1	-0.22344138
135	0x3db5a466	0.08869247
136	0xbdce8009	-0.100830145
137	0xbc9a7e50	-0.018859059
138	0x3d941058	0.0722968
139	0xbcbc2320	-0.022965968
140	0xbc52e6cd	-0.01287241
141	0x3dc4d8ee	0.096116886
142	0xbdf4ea76	-0.119587824
143	0xbdab4dc8	-0.08364445
144	0xbdee271f	-0.116285555
145	0x3d73b37c	0.05949734
146	0xbd8fb54a	-0.07017
147	0x3bf60fc0	0.0075092018
148	0x3cd2ac80	0.02571702
149	0xbda29b2e	-0.079397544
150	0xbf237eda	-0.63865435
151	0x3c363630	0.011121318
152	0xbc781510	-0.01514174
153	0x3d9a6c38	0.07540172
154	0xbc000e2a	-0.007815877
155	0x3dcc244a	0.09967859
156	0x3e556652	0.20839813
157	0xbdb871b2	-0.09006061
158	0x41395bbb	11.584895
159	0x3dfa3b0c	0.122182935
160	0xbd6ccd2c	-0.057812855
161	0xbd9cb9cc	-0.076526254
162	0xbe9e7efe	-0.30956262
163	0xbd0901dc	-0.03344904
164	0x3d007309	0.031359706
165	0xbde72310	-0.112859845
166	0x3be4df2f	0.0069846134
167	0x3cd22ec8	0.025657073
168	0x3cfdc6a8	0.030978516
169	0xbc805108	-0.015663639
170	0x3e8fc76d	0.28081837
171	0xbd856258	-0.06512898
172	0xc0af8fdd	-5.4863114
173	0x3bd2f420	0.0064377934
174	0x3d29a7bf	0.04141974
175	0x3dc3dd24	0.095636636
176	0xbdd917e2	-0.106002584
177	0xbd9d3bf2	-0.07677449
178	0x3db96c3d	0.09053848
179	0xbb0ac640	-0.0021175295
180	0xbee0dcc2	-0.43918425
181	0xbceab1d0	-0.02864924
182	0x403d79b5	2.9605534
183	0x3dba07fa	0.09083553
184	0xbe4de426	-0.20106563
185	0x3d5b8204	0.05359079
186	0xbdc69e2e	-0.09698139
187	0x3daa15c6	0.08304934
188	0xc185dc24	-16.73249
189	0xbdcbbc7e	-0.099480614
190	0xbcd59490	-0.026071817
191	0xbdda0306	-0.10645108
192	0x3eca93f2	0.39565998
193	0xbad37480	-0.0016132742
194	0x4053ba9b	3.3082645
195	0xbd4e67b0	-0.050391853
196	0xbcc65fda	-0.024215627
197	0xbc6c1530	-0.014409348
198	0xbd90fc21	-0.0707934
199	0xbdb8613a	-0.090029195
200	0xbd0c70b2	-0.034287162
201	0x3dd9b6a8	0.10630542
202	0xbdd8fdb2	-0.105952635
203	0x3d722928	0.05912128
204	0xbe7ebace	-0.24875948
205	0xbb8d0ca0	-0.0043044835
206	0xbd0510b3	-0.03248663
207	0x3ca78738	0.02045022
208	0xbc69feb9	-0.014281922
209	0x3db0680c	0.08613595
210	0xbe3a3c47	-0.18187056
211	0x3d2cbcfc	0.042172417
212	0x3d6a712b	0.05723683
213	0xbdd790a2	-0.105256334
214	0xbd3487fc	-0.044074997
215	0x3d064bd0	0.032787144
216	0xbde01e0c	-0.10943231
217	0x3de0aa5c	0.109699935
218	0x3d32a290	0.043612063
219	0x3d900be6	0.070335194
220	0x3de60d9c	0.112330645
221	0x3cb2bc88	0.021818414
222	0x401891ac	2.383891
223	0xbd93084e	-0.07179318
224	0xbe188293	-0.1489356
225	0xbcf2ed60	-0.029654205
226	0x3e407078	0.18792903
227	0xbd454b2c	-0.048167393
228	0xbc9f892a	-0.019474585
229	0xbd9f639c	-0.07782671
230	0xbda0bb44	-0.07848218
231	0x3dca14a8	0.09867221
232	0x3dd601e2	0.10449578
233	0xbcdd7dd8	-0.027037546
234	0x3eb8d48f	0.3609967
235	0x3dbf1918	0.09330958
236	0x405cb596	3.4485831
237	0xbd886714	-0.066602856
238	0xbd50587b	-0.05086563
239	0x3d124d34	0.035718158
240	0xbe1272af	-0.14301561
241	0x3d6bfdf0	0.05761522
242	0xbd4ad286	-0.049517177
243	0x3d95157c	0.072794884
244	0xbe26b8f1	-0.16281487
245	0xbd34730c	-0.04405503
246	0x3fec294f	1.8450106
247	0x3da332dc	0.07968685
248	0xbedd2569	-0.43192604
249	0xbd94cb04	-0.07265285
250	0x3cdba30b	0.026811143
251	0xbdff7a34	-0.1247448
252	0x3e207b43	0.1567202
253	0x3d99ccba	0.075097516
254	0x3d14e62f	0.036352333
255	0xbd09f674	-0.0336823

bias f4 [4]
0	0xc0bb90f5	-5.861445
1	0x406bcda1	3.6844256
2	0x3f92f388	1.148057
3	0x4133f148	11.246407
